DDOS/ddos-backend-master/app/models/ddos_dqn_model.pth (torch, 104490 bytes, 24 tensors)

fc1.weight f4 [64, 21]
0	0x3e8a10c6	0.26965922
1	0xbd24ab1e	-0.040202253
2	0x3e3ce4f7	0.18446718
3	0x3dd956d4	0.10612264
4	0xbd1fcc3c	-0.039013132
5	0x3e5b1c36	0.2139748
6	0xbe7cdb20	-0.24692965
7	0xbe1c9e49	-0.15294756
8	0xbacaf969	-0.0015485707
9	0x3c936850	0.017994076
10	0xbc94910d	-0.018135572
11	0x3d86595d	0.065600134
12	0xbe24a12b	-0.16077106
13	0x3d498eb2	0.04920835
14	0xbe246dac	-0.16057462
15	0xbd98b2d8	-0.07455987
16	0xbe2ef87e	-0.1708698
17	0x3ce1ad0b	0.027548334
18	0x3dd936e9	0.106061764
19	0x3e15357f	0.14571188
20	0x3c259c8e	0.010108126
21	0xbae573c6	-0.0017505817
22	0x3e71e16a	0.23621145
23	0xbe330f55	-0.17486317
24	0x3d5d88f3	0.054085683
25	0xbe21acaf	-0.1578853
26	0x3e518f6b	0.20464866
27	0x3d814fe5	0.06314067
28	0x3e244df8	0.16045368
29	0x3e154a23	0.14579062
30	0x3dc28ef4	0.094999224
31	0x3cb25306	0.021768104
32	0x3e39388d	0.18087979
33	0x3dbe068c	0.092785925
34	0xbdf266ee	-0.118360385
35	0x3e3ce67a	0.18447295
36	0x3ea028d2	0.31281143
37	0x3e731e61	0.23742057
38	0xbd70fab1	-0.058832828
39	0x3d08c3b1	0.03338975
40	0x3d6ac5a0	0.057317376
41	0xbc671e9b	-0.014106418
42	0xbdea1d0a	-0.1143132
43	0x3bc70584	0.0060736556
44	0xbdae68e2	-0.085160986
45	0xbd9e5148	-0.07730347
46	0x3e100c79	0.14067258
47	0x3dbebe08	0.09313589
48	0xbdc756ec	-0.09733376
49	0x3e2f2f08	0.17107785
50	0xbe3c64a7	-0.18397771
51	0x3dfd8f6c	0.12380871
52	0xbe071647	-0.13192092
53	0xbe23923a	-0.1597375
54	0xbdfaa9e4	-0.12239435
55	0xbe5e6cf2	-0.21721247
56	0xbe481942	-0.19540885
57	0xbbb2befc	-0.005454896
58	0xbd3789ff	-0.044809338
59	0xbda13ac5	-0.078725375
60	0x3e4950ad	0.19659682
61	0x3d66be77	0.056333985
62	0xbc0f152f	-0.008733078
63	0xbe2193c9	-0.15779032
64	0xbe61108e	-0.21978971
65	0xbd7aa79a	-0.061194994
66	0xbc0f7711	-0.008756415
67	0x3d4a5cb4	0.049404815
68	0xbd7f3cbf	-0.06231379
69	0x3dd85a61	0.105641134
70	0xbb45bc72	-0.0030172137
71	0x3c8eae09	0.01741697
72	0xbe35782f	-0.17721628
73	0x3cf83093	0.0302966
74	0x3e140826	0.14456233
75	0x3dbe5001	0.09292603
76	0xbdade459	-0.084908195
77	0x3c83dadf	0.016095577
78	0xbe32efac	-0.1747424
79	0xbe4104fb	-0.18849556
80	0xbce96972	-0.028492663
81	0xbda6323e	-0.08115052
82	0x3e2aa2bb	0.16663639
83	0xbde1b239	-0.110203214
84	0x3eab7011	0.33483937
85	0x3dbdb020	0.09262109
86	0xbc434f87	-0.011920816
87	0x3eb31ea2	0.34984308
88	0x3c60806d	0.013702494
89	0x3e12fc62	0.14354089
90	0x3e956d64	0.2918502
91	0xbd04160a	-0.03224758
92	0x3dec0d0b	0.11525925
93	0xbe3790cd	-0.17926331
94	0xbd7a30a3	-0.06108154
95	0x3dfb2c85	0.12264351
96	0x3e7dd20a	0.24787155
97	0x3db54156	0.088503525
98	0xbbaebcca	-0.005332564
99	0x3e95cca0	0.2925768
100	0x3e4ed551	0.20198561
101	0x3bce1150	0.006288685
102	0xbde97587	-0.1139937
103	0x3cd355b8	0.02579771
104	0xbd1a9625	-0.037740845
105	0xbd80bfd9	-0.06286592
106	0xbde50053	-0.111817025
107	0xbe190b60	-0.14945745
108	0x3e20c8be	0.15701577
109	0xbe1cab33	-0.15299682
110	0x3dbf4a39	0.09340329
111	0xbd659d85	-0.056058425
112	0x3e4943d4	0.1965478
113	0xbd88f97e	-0.06688212
114	0xbe4b9867	-0.19882356
115	0x3dc18de7	0.09450894
116	0x3e05db9b	0.13072054
117	0x3d960888	0.07325846
118	0xbe08f50d	-0.1337473
119	0xbe41a84e	-0.1891186
120	0x3e3f1ba3	0.18662886
121	0x3e88d8e0	0.26727962
122	0xbc2ee133	-0.010673809
123	0xbe3e72a9	-0.18598427
124	0x3db2659e	0.08710788
125	0x3c5315c8	0.012883611
126	0x3e43da11	0.19126154
127	0x3e9579aa	0.29194385
128	0xbd856bf4	-0.06514731
129	0x3dbee405	0.09320835
130	0xbe0751d0	-0.13214803
131	0x3eb65b5b	0.35616574
132	0x3c0ccb91	0.008593456
133	0x3e186442	0.14881995
134	0x3e2a78d3	0.16647653
135	0x3e57c15f	0.21069859
136	0x3d8f64ab	0.07001623
137	0x3e3547f6	0.17703232
138	0x3e4a1767	0.1973549
139	0x3e2b2fd8	0.1671747
140	0x3e38bb6f	0.1804025
141	0xbce520a5	-0.027969668
142	0x3e108213	0.1411212
143	0xbd16cefa	-0.036818482
144	0xbcb66928	-0.02226694
145	0x3e81b188	0.25330758
146	0x3d581cc1	0.052761797
147	0x3ce3ff18	0.0278316
148	0x3e6839fb	0.22678368
149	0xbdba3b51	-0.09093345
150	0x3ea09a68	0.31367803
151	0x3d7182b9	0.058962557
152	0xbc9d3185	-0.019188652
153	0x3dc1d24a	0.094639376
154	0xbe49103b	-0.19635098
155	0x3e862130	0.26197195
156	0x3e234284	0.15943342
157	0x3d3ebc3c	0.046566233
158	0xbd67d889	-0.05660299
159	0x3e683dc9	0.22679819
160	0x3e4ab5c1	0.19795896
161	0x3e0a2c82	0.13493541
162	0xbd034754	-0.032050446
163	0x3e4aad84	0.19792753
164	0x3e992c4d	0.2991661
165	0x3e5babf8	0.2145232
166	0xbe04bf6e	-0.1296365
167	0x3e23316c	0.15936822
168	0xbddaa8a0	-0.10676694
169	0xbcaf0610	-0.021365196
170	0x3e13f685	0.14449508
171	0xbdd453ab	-0.10367521
172	0xbe36dbde	-0.1785731
173	0xbe2ef47b	-0.1708545
174	0xbd8d2fe2	-0.068938985
175	0x3e0b39f5	0.13596328
176	0xbd277697	-0.04088458
177	0x3e388277	0.18018518
178	0x3c6b5f26	0.014365947
179	0x3e1282c0	0.1430769
180	0xbc647726	-0.013944423
181	0x3e4ce7a3	0.20010237
182	0x3d9b8226	0.07593183
183	0xbe5945de	-0.21218058
184	0xbd7e72cc	-0.062121198
185	0xbe146ccb	-0.14494626
186	0x3d104ddb	0.0352305
187	0xbdba7855	-0.09104983
188	0xbdcb1e15	-0.09917847
189	0x3d55ac4d	0.052166272
190	0x3d88baa4	0.06676224
191	0x3c590187	0.013244993
192	0x3e5dda1d	0.21665235
193	0x3d03ee1c	0.0322095
194	0x3dc7a2b7	0.09747832
195	0xbdc5a83c	-0.09651229
196	0x3ddc4fe2	0.10757424
197	0x3e3682d8	0.1782335
198	0x3e458d8d	0.19292279
199	0xbe0cd226	-0.1375204
200	0xbd8bf714	-0.06834236
201	0x3dfd4350	0.123663545
202	0x3e94f98c	0.2909664
203	0x3e635409	0.22200026
204	0xbd851ab0	-0.06499231
205	0xbd479ab4	-0.04873152
206	0x3e36cfcb	0.17852704
207	0xbd60602e	-0.054779224
208	0xbe3b2b65	-0.18278272
209	0x3d6fc113	0.05853374
210	0x3ed4b501	0.41544345
211	0x3e11823f	0.14209841
212	0xbdbecb59	-0.09316129
213	0x3ef2771d	0.473565
214	0x3e63d991	0.22250964
215	0x3efcc77d	0.49370947
216	0x3d31d084	0.043411747
217	0x3e95f4b2	0.2928825
218	0x3e9ebd30	0.31003714
219	0xbe5a6c06	-0.2133027
220	0xbcf01b59	-0.029309915
221	0x3e993728	0.29924893
222	0x3edb159e	0.4278993
223	0xbd18a8be	-0.0372703
224	0x3e3c4c98	0.18388593
225	0x3f016ae0	0.50553703
226	0x3ed85244	0.42250264
227	0x3e046692	0.12929752
228	0x3d85733b	0.06516119
229	0x3e0aa69b	0.13540117
230	0x3e716a44	0.23575693
231	0x3e052a32	0.13004377
232	0xbdc583ae	-0.096442565
233	0x3e55339a	0.20820466
234	0x3e234ab7	0.1594647
235	0x3dfab046	0.12240653
236	0x3d229cb5	0.03970023
237	0x3e2d11b8	0.1690129
238	0xbd82bcf0	-0.06383693
239	0xbd63c4f0	-0.055607736
240	0xbe16c0ce	-0.14721987
241	0xbc1c19f4	-0.009527672
242	0x3e4ffb58	0.20310724
243	0x3d226617	0.03964814
244	0xbd46dbe4	-0.048549548
245	0xbdc396a3	-0.09550216
246	0x3e8a316e	0.26990837
247	0x3e2641ec	0.16236085
248	0xbc65a98d	-0.014017475
249	0x3e73809a	0.23779526
250	0x3e1c8ace	0.15287325
251	0x3d20ecee	0.039288454
252	0x3dc2d6c4	0.095136195
253	0x3db7319e	0.089450106
254	0x3b864756	0.0040978594
255	0xbe8bd132	-0.2730804

fc1.bias f4 [64]
0	0xbcb38430	-0.021913618
1	0xbd7c228a	-0.061556377
2	0x3d8eec25	0.06978635
3	0x3dc1afbb	0.09457346
4	0x3a1a384f	0.00058830244
5	0x3e8e8763	0.27837667
6	0x3e96497e	0.29352945
7	0xbc0fe8f9	-0.008783572
8	0xbc14dce9	-0.009085872
9	0xbc5a363b	-0.013318594
10	0x3f199463	0.59992045
11	0x3e9875d1	0.29777387
12	0xbe394dfc	-0.18096155
13	0x3e686ce3	0.22697787
14	0x3d569c5a	0.052395202
15	0x3c13cd0d	0.009021056
16	0x3e2abe5c	0.16674179
17	0xbde4ee82	-0.11178304
18	0x3cd08268	0.025452808
19	0xbe1206b1	-0.14260365
20	0xbdc52338	-0.09625858
21	0x3dc3c2b3	0.0955862
22	0x3c849272	0.016183112
23	0xbe5b5135	-0.21417697
24	0xbd7f8dd9	-0.062391136
25	0x3e73d0b5	0.23810084
26	0x3e5fbc2f	0.2184913
27	0xbe087025	-0.1332403
28	0xbcbcd398	-0.023050115
29	0x3e5e02f4	0.21680814
30	0x3e69d8c3	0.22836594
31	0x3cde49c4	0.027134784
32	0xbd9928cc	-0.074784845
33	0x3e17d963	0.1482902
34	0x3db9c41c	0.09070608
35	0x3c11d7d1	0.008901552
36	0x3d1738a8	0.036919266
37	0xbd13a0c8	-0.036042005
38	0x3e8a1677	0.26970264
39	0x3d6327a5	0.05545773
40	0x3e45d070	0.19317794
41	0x3e7986bc	0.24367803
42	0x3c8d6c96	0.017263692
43	0x3bbe9243	0.0058157756
44	0x3e8ee316	0.27907628
45	0x3de8fbdb	0.113761626
46	0xbe1a87c7	-0.15090857
47	0xbd6d760b	-0.057973903
48	0xbe407761	-0.1879554
49	0x3e736564	0.23769146
50	0x3ebdce05	0.37071243
51	0x3d7ec61f	0.06220066
52	0xbe232951	-0.1593373
53	0x3e7ab6fe	0.24483868
54	0x3e0fb69f	0.14034508
55	0x3e565336	0.2093018
56	0x3e81a4a2	0.25320917
57	0xbe5063ad	-0.20350523
58	0x3c4d557b	0.012532587
59	0x3df76797	0.12080305
60	0xbd977149	-0.07394654
61	0x3e95fd7b	0.29294953
62	0x3e1f361b	0.15547983
63	0x3de7701c	0.1130068

fc2.weight f4 [64, 64]
0	0x3db61d0a	0.088922575
1	0xbda4c724	-0.080457956
2	0xbdabeb02	-0.083944336
3	0xbd83ed38	-0.0644173
4	0xbc71885c	-0.014741983
5	0xbda0804e	-0.07836972
6	0x3d89ff55	0.06738154
7	0x3d95f614	0.07322326
8	0xbc5e8976	-0.013582578
9	0x3d6db2cb	0.05803184
10	0xbdc309d1	-0.09523357
11	0xbd122997	-0.035684194
12	0x3d73cfeb	0.059524458
13	0xbd1e2ee2	-0.03861893
14	0xbdd93b14	-0.106069714
15	0x3ddbcbc6	0.10732226
16	0xbabfbde8	-0.001462874
17	0xbd7675fd	-0.060171116
18	0xbde3ccd1	-0.1112305
19	0xbd5b12fc	-0.0534849
20	0xbe10439c	-0.14088291
21	0x3d875874	0.06608668
22	0xbbd6d3c0	-0.0065560043
23	0x3cb88368	0.022523597
24	0x3c8482c0	0.016175628
25	0xbdde0d26	-0.108423516
26	0xbe051381	-0.12995721
27	0x3c42b55b	0.011884059
28	0xbc3dae5a	-0.011577213
29	0xbd74a236	-0.05972501
30	0xbcb82de7	-0.022482825
31	0x3be9226c	0.007114699
32	0x3d8f27c5	0.06990007
33	0xbde59fdb	-0.11212131
34	0x3cc3f38b	0.023919841
35	0x3d2638d2	0.04058153
36	0x3da46a18	0.08028048
37	0xbd8f1f2f	-0.0698837
38	0xbde75558	-0.11295575
39	0xbb73d420	-0.0037205294
40	0xbdc28df3	-0.09499731
41	0xbdb200a8	-0.086915314
42	0xbd86a7a3	-0.06574943
43	0xbdf12492	-0.11774553
44	0xbda9408a	-0.08264263
45	0xbdd012b8	-0.1015982
46	0x3ddc9a17	0.10771578
47	0x3dc429fc	0.095783204
48	0xbdc94e19	-0.09829349
49	0x3c07d475	0.0082904
50	0x3bda00df	0.006652936
51	0xbd007d50	-0.031369507
52	0x3d2b2143	0.041779768
53	0x3cc3797c	0.02386164
54	0xbd606c1f	-0.054790612
55	0x3d61a54e	0.055089287
56	0xbaa2b52c	-0.0012413613
57	0x3ce5aacc	0.028035544
58	0x3dc97221	0.098362215
59	0xbd4c3cf0	-0.049862802
60	0xbdb909c6	-0.09035067
61	0x3d6ac079	0.057312462
62	0xba164400	-0.00057321787
63	0x3d299731	0.041403953
64	0x3d69fc0f	0.057125147
65	0x3de54655	0.111950554
66	0x3cd13740	0.02553904
67	0xbb5ad400	-0.0033390522
68	0x3cafae0c	0.021445297
69	0xbdc08cac	-0.09401831
70	0xbd8bc88b	-0.0682536
71	0xbd5b3ad3	-0.053522896
72	0xbd1ef32c	-0.038806126
73	0xbd8b2fd9	-0.067962356
74	0x3d2d6c6f	0.04233974
75	0x3d4b81c7	0.049684312
76	0x3dc76b70	0.09737289
77	0xbddefa3c	-0.10887572
78	0x3d9496f8	0.072553575
79	0xbde1765b	-0.11008903
80	0xbe03e654	-0.12880832
81	0xbbe54900	-0.0069972277
82	0xbb2e3a99	-0.002658522
83	0x3d626a69	0.055277262
84	0xbe0892f8	-0.13337314
85	0xbd96a700	-0.073560715
86	0xbc54d8d0	-0.012991145
87	0xbc081270	-0.008305177
88	0xbdb012a6	-0.08597307
89	0xbdcc0f37	-0.099638395
90	0x3d672cc5	0.05643918
91	0xbccaa711	-0.024737867
92	0x3db07e75	0.0861787
93	0xbd7dfb0b	-0.06200699
94	0x3b951b4f	0.0045503746
95	0x3d99c943	0.07509091
96	0xbde6e036	-0.112732336
97	0x3d772257	0.060335483
98	0xbdc93bb0	-0.098258376
99	0x3c5bf63b	0.013425405
100	0xbd9d312d	-0.07675395
101	0x3c0ecf9c	0.00871649
102	0x3d71d148	0.059037477
103	0x3dd96ffd	0.10617063
104	0x3c20f18d	0.009823215
105	0x3a863f6a	0.0010242288
106	0xbdc70515	-0.09717766
107	0xbceeeefd	-0.029166693
108	0x3d313e40	0.043272257
109	0x3d6afa58	0.057367653
110	0xbdf5ef38	-0.12008518
111	0xbe0458d9	-0.12924518
112	0xbdfafef4	-0.1225566
113	0x3db71141	0.08938838
114	0x3d1157c8	0.035484105
115	0xbe0f06ad	-0.1396739
116	0x3d94f509	0.07273299
117	0xbd3a7f83	-0.04553176
118	0xbb9f1da9	-0.0048558307
119	0xbd29bad0	-0.041437924
120	0xbd0a1b47	-0.03371742
121	0xbde0393d	-0.10948417
122	0xbd2f6b33	-0.042826843
123	0xbcbbe580	-0.022936583
124	0xbd127130	-0.035752475
125	0xbdaf8ba5	-0.08571557
126	0x3deb49d8	0.11488694
127	0x3d1d356d	0.03838103
128	0xbd57fdd1	-0.052732293
129	0xbde719e1	-0.11284233
130	0x3deb47f8	0.11488336
131	0x3da77734	0.08177033
132	0xbc25146a	-0.010075668
133	0x3cbb5a3f	0.022870181
134	0x3dc340a5	0.09533814
135	0x3d732dbe	0.059369795
136	0x3da27420	0.07932305
137	0x3dc27cb6	0.09496443
138	0xbe15bdaf	-0.1462314
139	0xbde30352	-0.11084618
140	0xbccee896	-0.02525739
141	0xbd63468b	-0.055487197
142	0xbd04b10a	-0.0323954
143	0x3d5faa29	0.054605637
144	0xbe6ef257	-0.23334633
145	0x3d843ce9	0.0645693
146	0xbd1217e4	-0.035667315
147	0xbdc37d42	-0.095453754
148	0xba883eca	-0.0010394689
149	0x3c604d29	0.013690271
150	0x3d9ce334	0.07660523
151	0x3ddcbbc2	0.107779995
152	0xbd75bdc0	-0.059995413
153	0x3cbaa7d8	0.022785112
154	0x3de30830	0.11085546
155	0x3de378bc	0.11107013
156	0x3d8bf81f	0.06834435
157	0x3dfe4d91	0.12417138
158	0xbc0881fa	-0.00833177
159	0x3da58df6	0.080837175
160	0xbd88aa99	-0.06673164
161	0x3db55486	0.08854012
162	0xbd85422c	-0.06506762
163	0xbd1d6d72	-0.038434453
164	0x3d01388f	0.03154808
165	0xbd8a26ea	-0.067457035
166	0xbc912c9f	-0.017721472
167	0xbd75c940	-0.06000638
168	0x3d4a56fb	0.049399357
169	0xbd70827b	-0.058718186
170	0x3c1b2a01	0.009470464
171	0xbd94842c	-0.07251772
172	0x3c96616d	0.018357003
173	0x3dde7f5b	0.10864135
174	0xbdca1650	-0.09867537
175	0x3cc78b14	0.02435831
176	0x3ddeba0d	0.1087533
177	0xbdd06016	-0.10174577
178	0xbdaffd69	-0.08593256
179	0x3ca880ce	0.020569231
180	0xbdbaaeae	-0.09115349
181	0x3cc7637f	0.024339436
182	0x3d804892	0.06263842
183	0xbdb270ed	-0.08712945
184	0x3dc57413	0.0964128
185	0x3d87fca0	0.06639981
186	0xbc9bb1b2	-0.01900563
187	0x3dd343e4	0.103156835
188	0xbda7c588	-0.08191973
189	0xbdf1f872	-0.11814965
190	0xbd6bc484	-0.05756046
191	0xbe0ed15c	-0.13947052
192	0x3ddff3e0	0.10935187
193	0xbd913dc0	-0.07091856
194	0xbd4a374c	-0.04936914
195	0x3d749bf3	0.059719037
196	0x3db96132	0.09051742
197	0x3dec2730	0.11530912
198	0x3e098bc8	0.13432229
199	0x3df41043	0.11917164
200	0x3d1841d7	0.037172165
201	0x3d3c9d14	0.04604824
202	0x3ec4039f	0.38284013
203	0xbd5cddcf	-0.05392247
204	0xbac0b01c	-0.0014700922
205	0x3c872172	0.01649544
206	0xbd9e0b26	-0.0771697
207	0xbd9707cd	-0.07374535
208	0x3e518fbc	0.20464987
209	0x3dfbf766	0.12303047
210	0x3d72ac23	0.059246194
211	0xbd61a1b2	-0.055085845
212	0xbde8b72e	-0.11363064
213	0x3df37038	0.118866384
214	0x3cf40a10	0.029789954
215	0xbb503580	-0.003177017
216	0xbd63cc91	-0.05561501
217	0x3dfc4014	0.123169094
218	0x3b497c9e	0.0030744444
219	0xbdecbe1a	-0.115596965
220	0xbce4283d	-0.027851218
221	0x3ddac03e	0.106811985
222	0x3d80c6e0	0.062879324
223	0xbd126540	-0.03574109
224	0x3dcd60f6	0.100282595
225	0x3d8aef66	0.06783943
226	0xbd14d3b0	-0.036334693
227	0x3cd03e28	0.025420263
228	0x3c95c6e7	0.01828332
229	0x3e0d3335	0.13789065
230	0x3db0d0e9	0.086335965
231	0x3dc649f0	0.09682071
232	0x3e226783	0.15859799
233	0xbd9a2e7f	-0.075284
234	0xbd66faad	-0.056391407
235	0xbccaea30	-0.024769872
236	0x3db3a779	0.08772177
237	0xbe3167fc	-0.17324823
238	0xbdc4a8d4	-0.09602514
239	0xbdc90fec	-0.0981749
240	0xbdb320a8	-0.08746463
241	0x3e3d249a	0.18470994
242	0x3e69ac38	0.22819602
243	0x3d4513fb	0.048114758
244	0xbd03f143	-0.032212507
245	0x3e0ccd78	0.13750255
246	0x3da9b558	0.08286542
247	0x3ce8b337	0.028405769
248	0xbdb6c24c	-0.08923778
249	0x3cc63d4a	0.024199147
250	0x3dd1d017	0.10244768
251	0x3df94aca	0.12172468
252	0x3dd7f25a	0.10544272
253	0xbdce8307	-0.10083585
254	0x3da81b74	0.08208361
255	0x3cf9f7e7	0.030513717

fc2.bias f4 [64]
0	0x3d4b6958	0.04966101
1	0x3cadd6c5	0.021220574
2	0x3dc58bbf	0.09645795
3	0x3e1ac846	0.15115461
4	0xbb4e2a32	-0.0031458256
5	0x3d93f367	0.0722416
6	0xbd23aaa1	-0.039957646
7	0x3d4651eb	0.048417967
8	0xbbb9ef0e	-0.0056742495
9	0x3e9b788c	0.30365407
10	0x3d68ee51	0.0568679
11	0x3db4af25	0.08822469
12	0x3db2d73e	0.087324604
13	0xbc652e44	-0.013988081
14	0x3d78ccc2	0.060742147
15	0x3d23d94c	0.040002152
16	0x3d69617c	0.056977734
17	0xbdd53130	-0.104097724
18	0x3db96222	0.090519205
19	0xbd940a3f	-0.07228517
20	0x3d26f32e	0.040759258
21	0x3d0adb19	0.033900354
22	0xbd8c366e	-0.06846319
23	0x3e0b191a	0.13583794
24	0x3e3a4622	0.18190816
25	0xbd8d48d9	-0.0689866
26	0x3c540a23	0.01294187
27	0xbd355787	-0.044272926
28	0x3d8b65ad	0.068065025
29	0x3c7ff1c5	0.015621607
30	0xbdef5167	-0.11685448
31	0x3ea55100	0.3228836
32	0xbde0dcc7	-0.1097961
33	0x3e796624	0.2435537
34	0xbae9df9f	-0.0017843134
35	0x3caee4e2	0.021349374
36	0x3d259849	0.040428434
37	0x3bfaa413	0.0076489537
38	0x3d811f2b	0.06304773
39	0xbd3e3ca3	-0.046444546
40	0x3d84ffdb	0.06494113
41	0x3ce709cc	0.028202914
42	0x3d6c3473	0.057667207
43	0x3d2f56d6	0.042807423
44	0x3e929095	0.28625932
45	0x3d9c3f7a	0.07629295
46	0x3e3cd1e9	0.1843945
47	0xbc39ec36	-0.011347821
48	0x3dea4873	0.114396
49	0xbdd88375	-0.105719484
50	0xbdc8eeb8	-0.09811157
51	0xbb42fb40	-0.0029751807
52	0xbe05021d	-0.12989087
53	0xbd82d27d	-0.06387804
54	0x3def4e52	0.1168486
55	0x3dd2e2ed	0.10297189
56	0x3e3208a1	0.17386104
57	0x3e887bd8	0.26656985
58	0x3dbb1a0a	0.09135826
59	0x3e3b5e1d	0.1829762
60	0xbe0bde68	-0.1365906
61	0x3bcc5e39	0.006236818
62	0xbdd04c46	-0.10170798
63	0x3d2aab3c	0.041667208

fc3.weight f4 [6, 64]
0	0x3dd040fe	0.10168646
1	0xbc0447a7	-0.008073724
2	0x3cb3631f	0.02189785
3	0xbc9c527b	-0.019082299
4	0x3d762da6	0.060102127
5	0x3cfefc3e	0.031126138
6	0x3d38be12	0.04510314
7	0xbcba1795	-0.022716323
8	0xbce98bb1	-0.028508993
9	0x3e5ee535	0.21767123
10	0xbda5f803	-0.08103945
11	0x3e061c4a	0.13096729
12	0x3d8b0709	0.06788451
13	0xbd7b52cb	-0.061358254
14	0x3cae420a	0.021271724
15	0x3d9076f8	0.070539415
16	0xbdefcd26	-0.11709051
17	0x3d2a8cf4	0.04163833
18	0x3dbd1bf2	0.09233846
19	0xbd81c170	-0.063357234
20	0xbd4043b1	-0.046939556
21	0x3dedcce7	0.11611348
22	0xbb79958d	-0.0038083524
23	0x3d94758a	0.07248981
24	0x3de19ade	0.11015867
25	0x3dd1bb1e	0.10240768
26	0xbc268e66	-0.010165786
27	0xbdd9d863	-0.106369756
28	0xbdbfd3da	-0.09366579
29	0x3d6136b2	0.054983802
30	0xbbe807e9	-0.007081021
31	0x3e62f2ad	0.22162886
32	0xbd1be52c	-0.038060352
33	0x3d305079	0.043045495
34	0xbce6a704	-0.028155811
35	0x3dc4fab0	0.09618127
36	0xbde73636	-0.11289637
37	0xbdb2a083	-0.087220214
38	0x3d8a7a1a	0.0676157
39	0xbc5c0337	-0.013428501
40	0xbc2c09db	-0.010500397
41	0xbd2a2553	-0.0415395
42	0xbcd64412	-0.026155505
43	0xbd3e759d	-0.046498884
44	0x3deab115	0.11459557
45	0x3d96eda9	0.07369549
46	0xbc0a5ecf	-0.008445456
47	0x3d868334	0.06567994
48	0x3dddfdc2	0.10839416
49	0x3d92c061	0.071655996
50	0xbd7ea788	-0.06217149
51	0xbd513cb8	-0.051083297
52	0xbb0d1855	-0.0021529396
53	0xbd3d9714	-0.046286657
54	0x3d63e2dc	0.05563627
55	0xbd753bdb	-0.059871536
56	0x3ca4e79b	0.02012997
57	0x3afcd877	0.0019290586
58	0x3d1a8b4b	0.037730496
59	0xbcd02bc8	-0.025411502
60	0x3d4715bf	0.048604723
61	0x3dd4b499	0.10386009
62	0xbddbb290	-0.107274175
63	0xbd7eace8	-0.062176615
64	0xbd17f4e5	-0.037098784
65	0xbccaf6a5	-0.024775812
66	0xbd9a86ed	-0.07545266
67	0x3e00ff12	0.12597302
68	0xbc728433	-0.014802027
69	0xbd0a332f	-0.03374022
70	0x3db71d12	0.089410916
71	0xbdbd308d	-0.09237776
72	0x3d3aa424	0.045566693
73	0x3d53dedc	0.051726207
74	0x3d82f273	0.063939
75	0x3cf23b29	0.029569225
76	0xbd7ea7f3	-0.062171888
77	0xbda07728	-0.07835227
78	0x3d567ec8	0.052367
79	0xbcfbc428	-0.030733183
80	0xbd0da4bc	-0.03458093
81	0x3d91010e	0.07080279
82	0x3c2f3800	0.010694504
83	0x3c255f4a	0.010093519
84	0xbbda49cc	-0.0066616293
85	0x3d880d0c	0.066431135
86	0xbdd3ce7e	-0.1034212
87	0x3cbee3bc	0.023301952
88	0x3d4f2b29	0.05057827
89	0xbdda9a7a	-0.10673995
90	0xbda140b4	-0.07873669
91	0xbd70dd31	-0.058804695
92	0xbcec7040	-0.028862119
93	0xbd3a124f	-0.045427617
94	0xbdb1a4f7	-0.08674043
95	0x3e64c786	0.22341737
96	0xbdb3cd30	-0.08779371
97	0x3e006a67	0.1254059
98	0x3d24e7f9	0.04026029
99	0xbc5ac440	-0.013352454
100	0x3deb0112	0.114748135
101	0x3d3c021d	0.045900453
102	0x3d18b5fa	0.03728292
103	0x3cb99333	0.022653198
104	0x3dcff112	0.101534024
105	0xbde1cb6f	-0.1102513
106	0x3ce0d229	0.027443962
107	0x3d8419fb	0.06450268
108	0x3e04133d	0.12897964
109	0x3bd37a2c	0.006453773
110	0x3dcffc8a	0.1015559
111	0x3dfa40e5	0.12219409
112	0x3dde5952	0.1085688
113	0x3d0f0e6e	0.03492587
114	0xbc90c398	-0.017671391
115	0xbcf4a4f8	-0.02986382
116	0xbd7fd7b0	-0.062461555
117	0x3c8582c7	0.016297711
118	0xbded702c	-0.11593661
119	0xbd8193c0	-0.06327009
120	0x3d3b5907	0.0457392
121	0xbbf098eb	-0.007342448
122	0xbc9a32bd	-0.018823022
123	0x3dbd1df0	0.09234226
124	0x3d925062	0.07144238
125	0x3e08d577	0.1336268
126	0xbd0e68ec	-0.03476803
127	0xbde1d686	-0.11027245
128	0x3d0b1e12	0.033964224
129	0x3cf0722e	0.02935132
130	0x3d437816	0.047721945
131	0x3dc57e23	0.09643199
132	0xbd6f61ce	-0.058442883
133	0x3e1ee12a	0.15515581
134	0x3d5805b8	0.05273983
135	0xbcaba30b	-0.020951768
136	0x3bed4b00	0.0072416067
137	0x3b89a02a	0.0042000012
138	0x3a1f4f38	0.0006077173
139	0x3e132b69	0.14372028
140	0x3cb152fc	0.021646015
141	0xbd3a5eba	-0.045500495
142	0xbd4421b8	-0.04788372
143	0xbdfa887e	-0.12233065
144	0x3d359de4	0.04434003
145	0xbbdc1520	-0.0067163855
146	0x3da14a9a	0.07875557
147	0x3c4f337a	0.01264655
148	0xbd298251	-0.041384045
149	0xbd20e82e	-0.039283924
150	0x3ded0d40	0.11574793
151	0x3e16c7d2	0.14724663
152	0x3d8e4071	0.06945885
153	0xbd447a45	-0.047968168
154	0xbd8d9be3	-0.06914499
155	0xbd913815	-0.07090775
156	0x3d8b01a5	0.06787423
157	0x3c2cf62b	0.010556738
158	0xbd91d250	-0.07120192
159	0x3d294ff2	0.041336007
160	0x3b767140	0.0037604123
161	0xbd09d3e0	-0.033649325
162	0x3dc690b5	0.096955694
163	0x3da07242	0.07834293
164	0xbd89a2b2	-0.06720485
165	0x3ca09d4a	0.019606251
166	0x3d657107	0.056015994
167	0x3db9142a	0.09037049
168	0xbc3dbfc9	-0.01158137
169	0xbdf8aaae	-0.121419296
170	0x3df4dba0	0.11955953
171	0xbd80ec62	-0.062950864
172	0x3d761b0c	0.060084388
173	0x3d3d6891	0.0462423
174	0xbad49296	-0.0016218002
175	0x3bb441c0	0.005501002
176	0x3bf17895	0.007369111
177	0xbd0acbc6	-0.03388574
178	0x3dd13902	0.102159515
179	0xbcfdd758	-0.030986473
180	0xbd8c2786	-0.06843476
181	0xbcbadd33	-0.022810554
182	0xbc9a5288	-0.018838182
183	0x3e07063a	0.13185969
184	0x3d5711a4	0.052507058
185	0x3e0e623b	0.1390466
186	0xbd1c2d3e	-0.038129084
187	0x3de33d3c	0.11095664
188	0xbd53a838	-0.051674098
189	0xbd8cadb5	-0.068690695
190	0x3da49440	0.08036089
191	0x3d668794	0.05628164
192	0xbd36393b	-0.044488173
193	0x3d59fa07	0.05321696
194	0x3cf01790	0.02930811
195	0x3db0e3d1	0.086372025
196	0x3dccc9ea	0.099994496
197	0x3dbdf449	0.09275109
198	0x3dd5424c	0.10413036
199	0xbd9a8496	-0.0754482
200	0xbd998f58	-0.07498044
201	0x3db497ea	0.08818038
202	0xbd26e45b	-0.04074512
203	0xbd324b73	-0.043528985
204	0xbd82014f	-0.06347906
205	0xbda7ec4c	-0.08199367
206	0xbdb731e2	-0.08945061
207	0xbd7a1680	-0.061056614
208	0x3de82db4	0.11336842
209	0xbdf4da1c	-0.119556636
210	0x3d182dc4	0.03715302
211	0x3d8d4f45	0.06899885
212	0x3d8ddca1	0.06926847
213	0xbda2d37a	-0.07950492
214	0x3dafa999	0.0857727
215	0x3e12049b	0.1425957
216	0x3dc3ca9f	0.09560131
217	0xbdf72863	-0.1206825
218	0x3df8a206	0.121402785
219	0xbd30a376	-0.04312464
220	0xbc346f84	-0.0110129155
221	0x3d9ad1ee	0.07559572
222	0x3d8b360b	0.06797417
223	0x3e3700cd	0.17871399
224	0xbce6ecef	-0.02818915
225	0x3dfcd10e	0.123445615
226	0x3d65171c	0.055930242
227	0x3e258f3c	0.16167921
228	0xbdcccae6	-0.09999637
229	0x3e084ba2	0.13310102
230	0x3d99a9c5	0.07503084
231	0xbca3a613	-0.019976651
232	0xbbf04f40	-0.007333666
233	0xbd53ab75	-0.051677186
234	0x3d763847	0.060112264
235	0x3ca98daf	0.020697443
236	0xbdaa0880	-0.083024025
237	0xbdbf8d44	-0.09353116
238	0x3df90063	0.12158277
239	0x3deda3a8	0.116034806
240	0x3dc2c445	0.09510092
241	0xbd9e37ab	-0.077254616
242	0xbd44ab34	-0.048014835
243	0x3d9b7568	0.07590753
244	0xbc5c4716	-0.013444683
245	0x3db03fc7	0.086059146
246	0x3d23c32c	0.039981052
247	0x3d3d55de	0.046224467
248	0xbda3640f	-0.07978069
249	0x3e296a32	0.16544417
250	0xbd852d48	-0.06502777
251	0x3d2c5b99	0.04207954
252	0xbd40e790	-0.047095835
253	0xbc1a5279	-0.009419077
254	0xbdc82eae	-0.097745284
255	0x3d95de3c	0.073177785

fc3.bias f4 [6]
0	0x3e29791e	0.16550109
1	0x3e68e69e	0.22744223
2	0xbc93d134	-0.018044092
3	0x3d9f5bc9	0.077811785
4	0xbb8f3265	-0.004370021
5	0x3d20c883	0.039253723

fc1.weight f4 [64, 21]
0	0x3e8a10c6	0.26965922
1	0xbd24ab1e	-0.040202253
2	0x3e3ce4f7	0.18446718
3	0x3dd956d4	0.10612264
4	0xbd1fcc3c	-0.039013132
5	0x3e5b1c36	0.2139748
6	0xbe7cdb20	-0.24692965
7	0xbe1c9e49	-0.15294756
8	0xbacaf969	-0.0015485707
9	0x3c936850	0.017994076
10	0xbc94910d	-0.018135572
11	0x3d86595d	0.065600134
12	0xbe24a12b	-0.16077106
13	0x3d498eb2	0.04920835
14	0xbe246dac	-0.16057462
15	0xbd98b2d8	-0.07455987
16	0xbe2ef87e	-0.1708698
17	0x3ce1ad0b	0.027548334
18	0x3dd936e9	0.106061764
19	0x3e15357f	0.14571188
20	0x3c259c8e	0.010108126
21	0xbae573c6	-0.0017505817
22	0x3e71e16a	0.23621145
23	0xbe330f55	-0.17486317
24	0x3d5d88f3	0.054085683
25	0xbe21acaf	-0.1578853
26	0x3e518f6b	0.20464866
27	0x3d814fe5	0.06314067
28	0x3e244df8	0.16045368
29	0x3e154a23	0.14579062
30	0x3dc28ef4	0.094999224
31	0x3cb25306	0.021768104
32	0x3e39388d	0.18087979
33	0x3dbe068c	0.092785925
34	0xbdf266ee	-0.118360385
35	0x3e3ce67a	0.18447295
36	0x3ea028d2	0.31281143
37	0x3e731e61	0.23742057
38	0xbd70fab1	-0.058832828
39	0x3d08c3b1	0.03338975
40	0x3d6ac5a0	0.057317376
41	0xbc671e9b	-0.014106418
42	0xbdea1d0a	-0.1143132
43	0x3bc70584	0.0060736556
44	0xbdae68e2	-0.085160986
45	0xbd9e5148	-0.07730347
46	0x3e100c79	0.14067258
47	0x3dbebe08	0.09313589
48	0xbdc756ec	-0.09733376
49	0x3e2f2f08	0.17107785
50	0xbe3c64a7	-0.18397771
51	0x3dfd8f6c	0.12380871
52	0xbe071647	-0.13192092
53	0xbe23923a	-0.1597375
54	0xbdfaa9e4	-0.12239435
55	0xbe5e6cf2	-0.21721247
56	0xbe481942	-0.19540885
57	0xbbb2befc	-0.005454896
58	0xbd3789ff	-0.044809338
59	0xbda13ac5	-0.078725375
60	0x3e4950ad	0.19659682
61	0x3d66be77	0.056333985
62	0xbc0f152f	-0.008733078
63	0xbe2193c9	-0.15779032
64	0xbe61108e	-0.21978971
65	0xbd7aa79a	-0.061194994
66	0xbc0f7711	-0.008756415
67	0x3d4a5cb4	0.049404815
68	0xbd7f3cbf	-0.06231379
69	0x3dd85a61	0.105641134
70	0xbb45bc72	-0.0030172137
71	0x3c8eae09	0.01741697
72	0xbe35782f	-0.17721628
73	0x3cf83093	0.0302966
74	0x3e140826	0.14456233
75	0x3dbe5001	0.09292603
76	0xbdade459	-0.084908195
77	0x3c83dadf	0.016095577
78	0xbe32efac	-0.1747424
79	0xbe4104fb	-0.18849556
80	0xbce96972	-0.028492663
81	0xbda6323e	-0.08115052
82	0x3e2aa2bb	0.16663639
83	0xbde1b239	-0.110203214
84	0x3eab7011	0.33483937
85	0x3dbdb020	0.09262109
86	0xbc434f87	-0.011920816
87	0x3eb31ea2	0.34984308
88	0x3c60806d	0.013702494
89	0x3e12fc62	0.14354089
90	0x3e956d64	0.2918502
91	0xbd04160a	-0.03224758
92	0x3dec0d0b	0.11525925
93	0xbe3790cd	-0.17926331
94	0xbd7a30a3	-0.06108154
95	0x3dfb2c85	0.12264351
96	0x3e7dd20a	0.24787155
97	0x3db54156	0.088503525
98	0xbbaebcca	-0.005332564
99	0x3e95cca0	0.2925768
100	0x3e4ed551	0.20198561
101	0x3bce1150	0.006288685
102	0xbde97587	-0.1139937
103	0x3cd355b8	0.02579771
104	0xbd1a9625	-0.037740845
105	0xbd80bfd9	-0.06286592
106	0xbde50053	-0.111817025
107	0xbe190b60	-0.14945745
108	0x3e20c8be	0.15701577
109	0xbe1cab33	-0.15299682
110	0x3dbf4a39	0.09340329
111	0xbd659d85	-0.056058425
112	0x3e4943d4	0.1965478
113	0xbd88f97e	-0.06688212
114	0xbe4b9867	-0.19882356
115	0x3dc18de7	0.09450894
116	0x3e05db9b	0.13072054
117	0x3d960888	0.07325846
118	0xbe08f50d	-0.1337473
119	0xbe41a84e	-0.1891186
120	0x3e3f1ba3	0.18662886
121	0x3e88d8e0	0.26727962
122	0xbc2ee133	-0.010673809
123	0xbe3e72a9	-0.18598427
124	0x3db2659e	0.08710788
125	0x3c5315c8	0.012883611
126	0x3e43da11	0.19126154
127	0x3e9579aa	0.29194385
128	0xbd856bf4	-0.06514731
129	0x3dbee405	0.09320835
130	0xbe0751d0	-0.13214803
131	0x3eb65b5b	0.35616574
132	0x3c0ccb91	0.008593456
133	0x3e186442	0.14881995
134	0x3e2a78d3	0.16647653
135	0x3e57c15f	0.21069859
136	0x3d8f64ab	0.07001623
137	0x3e3547f6	0.17703232
138	0x3e4a1767	0.1973549
139	0x3e2b2fd8	0.1671747
140	0x3e38bb6f	0.1804025
141	0xbce520a5	-0.027969668
142	0x3e108213	0.1411212
143	0xbd16cefa	-0.036818482
144	0xbcb66928	-0.02226694
145	0x3e81b188	0.25330758
146	0x3d581cc1	0.052761797
147	0x3ce3ff18	0.0278316
148	0x3e6839fb	0.22678368
149	0xbdba3b51	-0.09093345
150	0x3ea09a68	0.31367803
151	0x3d7182b9	0.058962557
152	0xbc9d3185	-0.019188652
153	0x3dc1d24a	0.094639376
154	0xbe49103b	-0.19635098
155	0x3e862130	0.26197195
156	0x3e234284	0.15943342
157	0x3d3ebc3c	0.046566233
158	0xbd67d889	-0.05660299
159	0x3e683dc9	0.22679819
160	0x3e4ab5c1	0.19795896
161	0x3e0a2c82	0.13493541
162	0xbd034754	-0.032050446
163	0x3e4aad84	0.19792753
164	0x3e992c4d	0.2991661
165	0x3e5babf8	0.2145232
166	0xbe04bf6e	-0.1296365
167	0x3e23316c	0.15936822
168	0xbddaa8a0	-0.10676694
169	0xbcaf0610	-0.021365196
170	0x3e13f685	0.14449508
171	0xbdd453ab	-0.10367521
172	0xbe36dbde	-0.1785731
173	0xbe2ef47b	-0.1708545
174	0xbd8d2fe2	-0.068938985
175	0x3e0b39f5	0.13596328
176	0xbd277697	-0.04088458
177	0x3e388277	0.18018518
178	0x3c6b5f26	0.014365947
179	0x3e1282c0	0.1430769
180	0xbc647726	-0.013944423
181	0x3e4ce7a3	0.20010237
182	0x3d9b8226	0.07593183
183	0xbe5945de	-0.21218058
184	0xbd7e72cc	-0.062121198
185	0xbe146ccb	-0.14494626
186	0x3d104ddb	0.0352305
187	0xbdba7855	-0.09104983
188	0xbdcb1e15	-0.09917847
189	0x3d55ac4d	0.052166272
190	0x3d88baa4	0.06676224
191	0x3c590187	0.013244993
192	0x3e5dda1d	0.21665235
193	0x3d03ee1c	0.0322095
194	0x3dc7a2b7	0.09747832
195	0xbdc5a83c	-0.09651229
196	0x3ddc4fe2	0.10757424
197	0x3e3682d8	0.1782335
198	0x3e458d8d	0.19292279
199	0xbe0cd226	-0.1375204
200	0xbd8bf714	-0.06834236
201	0x3dfd4350	0.123663545
202	0x3e94f98c	0.2909664
203	0x3e635409	0.22200026
204	0xbd851ab0	-0.06499231
205	0xbd479ab4	-0.04873152
206	0x3e36cfcb	0.17852704
207	0xbd60602e	-0.054779224
208	0xbe3b2b65	-0.18278272
209	0x3d6fc113	0.05853374
210	0x3ed4b501	0.41544345
211	0x3e11823f	0.14209841
212	0xbdbecb59	-0.09316129
213	0x3ef2771d	0.473565
214	0x3e63d991	0.22250964
215	0x3efcc77d	0.49370947
216	0x3d31d084	0.043411747
217	0x3e95f4b2	0.2928825
218	0x3e9ebd30	0.31003714
219	0xbe5a6c06	-0.2133027
220	0xbcf01b59	-0.029309915
221	0x3e993728	0.29924893
222	0x3edb159e	0.4278993
223	0xbd18a8be	-0.0372703
224	0x3e3c4c98	0.18388593
225	0x3f016ae0	0.50553703
226	0x3ed85244	0.42250264
227	0x3e046692	0.12929752
228	0x3d85733b	0.06516119
229	0x3e0aa69b	0.13540117
230	0x3e716a44	0.23575693
231	0x3e052a32	0.13004377
232	0xbdc583ae	-0.096442565
233	0x3e55339a	0.20820466
234	0x3e234ab7	0.1594647
235	0x3dfab046	0.12240653
236	0x3d229cb5	0.03970023
237	0x3e2d11b8	0.1690129
238	0xbd82bcf0	-0.06383693
239	0xbd63c4f0	-0.055607736
240	0xbe16c0ce	-0.14721987
241	0xbc1c19f4	-0.009527672
242	0x3e4ffb58	0.20310724
243	0x3d226617	0.03964814
244	0xbd46dbe4	-0.048549548
245	0xbdc396a3	-0.09550216
246	0x3e8a316e	0.26990837
247	0x3e2641ec	0.16236085
248	0xbc65a98d	-0.014017475
249	0x3e73809a	0.23779526
250	0x3e1c8ace	0.15287325
251	0x3d20ecee	0.039288454
252	0x3dc2d6c4	0.095136195
253	0x3db7319e	0.089450106
254	0x3b864756	0.0040978594
255	0xbe8bd132	-0.2730804

fc1.bias f4 [64]
0	0xbcb38430	-0.021913618
1	0xbd7c228a	-0.061556377
2	0x3d8eec25	0.06978635
3	0x3dc1afbb	0.09457346
4	0x3a1a384f	0.00058830244
5	0x3e8e8763	0.27837667
6	0x3e96497e	0.29352945
7	0xbc0fe8f9	-0.008783572
8	0xbc14dce9	-0.009085872
9	0xbc5a363b	-0.013318594
10	0x3f199463	0.59992045
11	0x3e9875d1	0.29777387
12	0xbe394dfc	-0.18096155
13	0x3e686ce3	0.22697787
14	0x3d569c5a	0.052395202
15	0x3c13cd0d	0.009021056
16	0x3e2abe5c	0.16674179
17	0xbde4ee82	-0.11178304
18	0x3cd08268	0.025452808
19	0xbe1206b1	-0.14260365
20	0xbdc52338	-0.09625858
21	0x3dc3c2b3	0.0955862
22	0x3c849272	0.016183112
23	0xbe5b5135	-0.21417697
24	0xbd7f8dd9	-0.062391136
25	0x3e73d0b5	0.23810084
26	0x3e5fbc2f	0.2184913
27	0xbe087025	-0.1332403
28	0xbcbcd398	-0.023050115
29	0x3e5e02f4	0.21680814
30	0x3e69d8c3	0.22836594
31	0x3cde49c4	0.027134784
32	0xbd9928cc	-0.074784845
33	0x3e17d963	0.1482902
34	0x3db9c41c	0.09070608
35	0x3c11d7d1	0.008901552
36	0x3d1738a8	0.036919266
37	0xbd13a0c8	-0.036042005
38	0x3e8a1677	0.26970264
39	0x3d6327a5	0.05545773
40	0x3e45d070	0.19317794
41	0x3e7986bc	0.24367803
42	0x3c8d6c96	0.017263692
43	0x3bbe9243	0.0058157756
44	0x3e8ee316	0.27907628
45	0x3de8fbdb	0.113761626
46	0xbe1a87c7	-0.15090857
47	0xbd6d760b	-0.057973903
48	0xbe407761	-0.1879554
49	0x3e736564	0.23769146
50	0x3ebdce05	0.37071243
51	0x3d7ec61f	0.06220066
52	0xbe232951	-0.1593373
53	0x3e7ab6fe	0.24483868
54	0x3e0fb69f	0.14034508
55	0x3e565336	0.2093018
56	0x3e81a4a2	0.25320917
57	0xbe5063ad	-0.20350523
58	0x3c4d557b	0.012532587
59	0x3df76797	0.12080305
60	0xbd977149	-0.07394654
61	0x3e95fd7b	0.29294953
62	0x3e1f361b	0.15547983
63	0x3de7701c	0.1130068

fc2.weight f4 [64, 64]
0	0x3db61d0a	0.088922575
1	0xbda4c724	-0.080457956
2	0xbdabeb02	-0.083944336
3	0xbd83ed38	-0.0644173
4	0xbc71885c	-0.014741983
5	0xbda0804e	-0.07836972
6	0x3d89ff55	0.06738154
7	0x3d95f614	0.07322326
8	0xbc5e8976	-0.013582578
9	0x3d6db2cb	0.05803184
10	0xbdc309d1	-0.09523357
11	0xbd122997	-0.035684194
12	0x3d73cfeb	0.059524458
13	0xbd1e2ee2	-0.03861893
14	0xbdd93b14	-0.106069714
15	0x3ddbcbc6	0.10732226
16	0xbabfbde8	-0.001462874
17	0xbd7675fd	-0.060171116
18	0xbde3ccd1	-0.1112305
19	0xbd5b12fc	-0.0534849
20	0xbe10439c	-0.14088291
21	0x3d875874	0.06608668
22	0xbbd6d3c0	-0.0065560043
23	0x3cb88368	0.022523597
24	0x3c8482c0	0.016175628
25	0xbdde0d26	-0.108423516
26	0xbe051381	-0.12995721
27	0x3c42b55b	0.011884059
28	0xbc3dae5a	-0.011577213
29	0xbd74a236	-0.05972501
30	0xbcb82de7	-0.022482825
31	0x3be9226c	0.007114699
32	0x3d8f27c5	0.06990007
33	0xbde59fdb	-0.11212131
34	0x3cc3f38b	0.023919841
35	0x3d2638d2	0.04058153
36	0x3da46a18	0.08028048
37	0xbd8f1f2f	-0.0698837
38	0xbde75558	-0.11295575
39	0xbb73d420	-0.0037205294
40	0xbdc28df3	-0.09499731
41	0xbdb200a8	-0.086915314
42	0xbd86a7a3	-0.06574943
43	0xbdf12492	-0.11774553
44	0xbda9408a	-0.08264263
45	0xbdd012b8	-0.1015982
46	0x3ddc9a17	0.10771578
47	0x3dc429fc	0.095783204
48	0xbdc94e19	-0.09829349
49	0x3c07d475	0.0082904
50	0x3bda00df	0.006652936
51	0xbd007d50	-0.031369507
52	0x3d2b2143	0.041779768
53	0x3cc3797c	0.02386164
54	0xbd606c1f	-0.054790612
55	0x3d61a54e	0.055089287
56	0xbaa2b52c	-0.0012413613
57	0x3ce5aacc	0.028035544
58	0x3dc97221	0.098362215
59	0xbd4c3cf0	-0.049862802
60	0xbdb909c6	-0.09035067
61	0x3d6ac079	0.057312462
62	0xba164400	-0.00057321787
63	0x3d299731	0.041403953
64	0x3d69fc0f	0.057125147
65	0x3de54655	0.111950554
66	0x3cd13740	0.02553904
67	0xbb5ad400	-0.0033390522
68	0x3cafae0c	0.021445297
69	0xbdc08cac	-0.09401831
70	0xbd8bc88b	-0.0682536
71	0xbd5b3ad3	-0.053522896
72	0xbd1ef32c	-0.038806126
73	0xbd8b2fd9	-0.067962356
74	0x3d2d6c6f	0.04233974
75	0x3d4b81c7	0.049684312
76	0x3dc76b70	0.09737289
77	0xbddefa3c	-0.10887572
78	0x3d9496f8	0.072553575
79	0xbde1765b	-0.11008903
80	0xbe03e654	-0.12880832
81	0xbbe54900	-0.0069972277
82	0xbb2e3a99	-0.002658522
83	0x3d626a69	0.055277262
84	0xbe0892f8	-0.13337314
85	0xbd96a700	-0.073560715
86	0xbc54d8d0	-0.012991145
87	0xbc081270	-0.008305177
88	0xbdb012a6	-0.08597307
89	0xbdcc0f37	-0.099638395
90	0x3d672cc5	0.05643918
91	0xbccaa711	-0.024737867
92	0x3db07e75	0.0861787
93	0xbd7dfb0b	-0.06200699
94	0x3b951b4f	0.0045503746
95	0x3d99c943	0.07509091
96	0xbde6e036	-0.112732336
97	0x3d772257	0.060335483
98	0xbdc93bb0	-0.098258376
99	0x3c5bf63b	0.013425405
100	0xbd9d312d	-0.07675395
101	0x3c0ecf9c	0.00871649
102	0x3d71d148	0.059037477
103	0x3dd96ffd	0.10617063
104	0x3c20f18d	0.009823215
105	0x3a863f6a	0.0010242288
106	0xbdc70515	-0.09717766
107	0xbceeeefd	-0.029166693
108	0x3d313e40	0.043272257
109	0x3d6afa58	0.057367653
110	0xbdf5ef38	-0.12008518
111	0xbe0458d9	-0.12924518
112	0xbdfafef4	-0.1225566
113	0x3db71141	0.08938838
114	0x3d1157c8	0.035484105
115	0xbe0f06ad	-0.1396739
116	0x3d94f509	0.07273299
117	0xbd3a7f83	-0.04553176
118	0xbb9f1da9	-0.0048558307
119	0xbd29bad0	-0.041437924
120	0xbd0a1b47	-0.03371742
121	0xbde0393d	-0.10948417
122	0xbd2f6b33	-0.042826843
123	0xbcbbe580	-0.022936583
124	0xbd127130	-0.035752475
125	0xbdaf8ba5	-0.08571557
126	0x3deb49d8	0.11488694
127	0x3d1d356d	0.03838103
128	0xbd57fdd1	-0.052732293
129	0xbde719e1	-0.11284233
130	0x3deb47f8	0.11488336
131	0x3da77734	0.08177033
132	0xbc25146a	-0.010075668
133	0x3cbb5a3f	0.022870181
134	0x3dc340a5	0.09533814
135	0x3d732dbe	0.059369795
136	0x3da27420	0.07932305
137	0x3dc27cb6	0.09496443
138	0xbe15bdaf	-0.1462314
139	0xbde30352	-0.11084618
140	0xbccee896	-0.02525739
141	0xbd63468b	-0.055487197
142	0xbd04b10a	-0.0323954
143	0x3d5faa29	0.054605637
144	0xbe6ef257	-0.23334633
145	0x3d843ce9	0.0645693
146	0xbd1217e4	-0.035667315
147	0xbdc37d42	-0.095453754
148	0xba883eca	-0.0010394689
149	0x3c604d29	0.013690271
150	0x3d9ce334	0.07660523
151	0x3ddcbbc2	0.107779995
152	0xbd75bdc0	-0.059995413
153	0x3cbaa7d8	0.022785112
154	0x3de30830	0.11085546
155	0x3de378bc	0.11107013
156	0x3d8bf81f	0.06834435
157	0x3dfe4d91	0.12417138
158	0xbc0881fa	-0.00833177
159	0x3da58df6	0.080837175
160	0xbd88aa99	-0.06673164
161	0x3db55486	0.08854012
162	0xbd85422c	-0.06506762
163	0xbd1d6d72	-0.038434453
164	0x3d01388f	0.03154808
165	0xbd8a26ea	-0.067457035
166	0xbc912c9f	-0.017721472
167	0xbd75c940	-0.06000638
168	0x3d4a56fb	0.049399357
169	0xbd70827b	-0.058718186
170	0x3c1b2a01	0.009470464
171	0xbd94842c	-0.07251772
172	0x3c96616d	0.018357003
173	0x3dde7f5b	0.10864135
174	0xbdca1650	-0.09867537
175	0x3cc78b14	0.02435831
176	0x3ddeba0d	0.1087533
177	0xbdd06016	-0.10174577
178	0xbdaffd69	-0.08593256
179	0x3ca880ce	0.020569231
180	0xbdbaaeae	-0.09115349
181	0x3cc7637f	0.024339436
182	0x3d804892	0.06263842
183	0xbdb270ed	-0.08712945
184	0x3dc57413	0.0964128
185	0x3d87fca0	0.06639981
186	0xbc9bb1b2	-0.01900563
187	0x3dd343e4	0.103156835
188	0xbda7c588	-0.08191973
189	0xbdf1f872	-0.11814965
190	0xbd6bc484	-0.05756046
191	0xbe0ed15c	-0.13947052
192	0x3ddff3e0	0.10935187
193	0xbd913dc0	-0.07091856
194	0xbd4a374c	-0.04936914
195	0x3d749bf3	0.059719037
196	0x3db96132	0.09051742
197	0x3dec2730	0.11530912
198	0x3e098bc8	0.13432229
199	0x3df41043	0.11917164
200	0x3d1841d7	0.037172165
201	0x3d3c9d14	0.04604824
202	0x3ec4039f	0.38284013
203	0xbd5cddcf	-0.05392247
204	0xbac0b01c	-0.0014700922
205	0x3c872172	0.01649544
206	0xbd9e0b26	-0.0771697
207	0xbd9707cd	-0.07374535
208	0x3e518fbc	0.20464987
209	0x3dfbf766	0.12303047
210	0x3d72ac23	0.059246194
211	0xbd61a1b2	-0.055085845
212	0xbde8b72e	-0.11363064
213	0x3df37038	0.118866384
214	0x3cf40a10	0.029789954
215	0xbb503580	-0.003177017
216	0xbd63cc91	-0.05561501
217	0x3dfc4014	0.123169094
218	0x3b497c9e	0.0030744444
219	0xbdecbe1a	-0.115596965
220	0xbce4283d	-0.027851218
221	0x3ddac03e	0.106811985
222	0x3d80c6e0	0.062879324
223	0xbd126540	-0.03574109
224	0x3dcd60f6	0.100282595
225	0x3d8aef66	0.06783943
226	0xbd14d3b0	-0.036334693
227	0x3cd03e28	0.025420263
228	0x3c95c6e7	0.01828332
229	0x3e0d3335	0.13789065
230	0x3db0d0e9	0.086335965
231	0x3dc649f0	0.09682071
232	0x3e226783	0.15859799
233	0xbd9a2e7f	-0.075284
234	0xbd66faad	-0.056391407
235	0xbccaea30	-0.024769872
236	0x3db3a779	0.08772177
237	0xbe3167fc	-0.17324823
238	0xbdc4a8d4	-0.09602514
239	0xbdc90fec	-0.0981749
240	0xbdb320a8	-0.08746463
241	0x3e3d249a	0.18470994
242	0x3e69ac38	0.22819602
243	0x3d4513fb	0.048114758
244	0xbd03f143	-0.032212507
245	0x3e0ccd78	0.13750255
246	0x3da9b558	0.08286542
247	0x3ce8b337	0.028405769
248	0xbdb6c24c	-0.08923778
249	0x3cc63d4a	0.024199147
250	0x3dd1d017	0.10244768
251	0x3df94aca	0.12172468
252	0x3dd7f25a	0.10544272
253	0xbdce8307	-0.10083585
254	0x3da81b74	0.08208361
255	0x3cf9f7e7	0.030513717

fc2.bias f4 [64]
0	0x3d4b6958	0.04966101
1	0x3cadd6c5	0.021220574
2	0x3dc58bbf	0.09645795
3	0x3e1ac846	0.15115461
4	0xbb4e2a32	-0.0031458256
5	0x3d93f367	0.0722416
6	0xbd23aaa1	-0.039957646
7	0x3d4651eb	0.048417967
8	0xbbb9ef0e	-0.0056742495
9	0x3e9b788c	0.30365407
10	0x3d68ee51	0.0568679
11	0x3db4af25	0.08822469
12	0x3db2d73e	0.087324604
13	0xbc652e44	-0.013988081
14	0x3d78ccc2	0.060742147
15	0x3d23d94c	0.040002152
16	0x3d69617c	0.056977734
17	0xbdd53130	-0.104097724
18	0x3db96222	0.090519205
19	0xbd940a3f	-0.07228517
20	0x3d26f32e	0.040759258
21	0x3d0adb19	0.033900354
22	0xbd8c366e	-0.06846319
23	0x3e0b191a	0.13583794
24	0x3e3a4622	0.18190816
25	0xbd8d48d9	-0.0689866
26	0x3c540a23	0.01294187
27	0xbd355787	-0.044272926
28	0x3d8b65ad	0.068065025
29	0x3c7ff1c5	0.015621607
30	0xbdef5167	-0.11685448
31	0x3ea55100	0.3228836
32	0xbde0dcc7	-0.1097961
33	0x3e796624	0.2435537
34	0xbae9df9f	-0.0017843134
35	0x3caee4e2	0.021349374
36	0x3d259849	0.040428434
37	0x3bfaa413	0.0076489537
38	0x3d811f2b	0.06304773
39	0xbd3e3ca3	-0.046444546
40	0x3d84ffdb	0.06494113
41	0x3ce709cc	0.028202914
42	0x3d6c3473	0.057667207
43	0x3d2f56d6	0.042807423
44	0x3e929095	0.28625932
45	0x3d9c3f7a	0.07629295
46	0x3e3cd1e9	0.1843945
47	0xbc39ec36	-0.011347821
48	0x3dea4873	0.114396
49	0xbdd88375	-0.105719484
50	0xbdc8eeb8	-0.09811157
51	0xbb42fb40	-0.0029751807
52	0xbe05021d	-0.12989087
53	0xbd82d27d	-0.06387804
54	0x3def4e52	0.1168486
55	0x3dd2e2ed	0.10297189
56	0x3e3208a1	0.17386104
57	0x3e887bd8	0.26656985
58	0x3dbb1a0a	0.09135826
59	0x3e3b5e1d	0.1829762
60	0xbe0bde68	-0.1365906
61	0x3bcc5e39	0.006236818
62	0xbdd04c46	-0.10170798
63	0x3d2aab3c	0.041667208

fc3.weight f4 [6, 64]
0	0x3dd040fe	0.10168646
1	0xbc0447a7	-0.008073724
2	0x3cb3631f	0.02189785
3	0xbc9c527b	-0.019082299
4	0x3d762da6	0.060102127
5	0x3cfefc3e	0.031126138
6	0x3d38be12	0.04510314
7	0xbcba1795	-0.022716323
8	0xbce98bb1	-0.028508993
9	0x3e5ee535	0.21767123
10	0xbda5f803	-0.08103945
11	0x3e061c4a	0.13096729
12	0x3d8b0709	0.06788451
13	0xbd7b52cb	-0.061358254
14	0x3cae420a	0.021271724
15	0x3d9076f8	0.070539415
16	0xbdefcd26	-0.11709051
17	0x3d2a8cf4	0.04163833
18	0x3dbd1bf2	0.09233846
19	0xbd81c170	-0.063357234
20	0xbd4043b1	-0.046939556
21	0x3dedcce7	0.11611348
22	0xbb79958d	-0.0038083524
23	0x3d94758a	0.07248981
24	0x3de19ade	0.11015867
25	0x3dd1bb1e	0.10240768
26	0xbc268e66	-0.010165786
27	0xbdd9d863	-0.106369756
28	0xbdbfd3da	-0.09366579
29	0x3d6136b2	0.054983802
30	0xbbe807e9	-0.007081021
31	0x3e62f2ad	0.22162886
32	0xbd1be52c	-0.038060352
33	0x3d305079	0.043045495
34	0xbce6a704	-0.028155811
35	0x3dc4fab0	0.09618127
36	0xbde73636	-0.11289637
37	0xbdb2a083	-0.087220214
38	0x3d8a7a1a	0.0676157
39	0xbc5c0337	-0.013428501
40	0xbc2c09db	-0.010500397
41	0xbd2a2553	-0.0415395
42	0xbcd64412	-0.026155505
43	0xbd3e759d	-0.046498884
44	0x3deab115	0.11459557
45	0x3d96eda9	0.07369549
46	0xbc0a5ecf	-0.008445456
47	0x3d868334	0.06567994
48	0x3dddfdc2	0.10839416
49	0x3d92c061	0.071655996
50	0xbd7ea788	-0.06217149
51	0xbd513cb8	-0.051083297
52	0xbb0d1855	-0.0021529396
53	0xbd3d9714	-0.046286657
54	0x3d63e2dc	0.05563627
55	0xbd753bdb	-0.059871536
56	0x3ca4e79b	0.02012997
57	0x3afcd877	0.0019290586
58	0x3d1a8b4b	0.037730496
59	0xbcd02bc8	-0.025411502
60	0x3d4715bf	0.048604723
61	0x3dd4b499	0.10386009
62	0xbddbb290	-0.107274175
63	0xbd7eace8	-0.062176615
64	0xbd17f4e5	-0.037098784
65	0xbccaf6a5	-0.024775812
66	0xbd9a86ed	-0.07545266
67	0x3e00ff12	0.12597302
68	0xbc728433	-0.014802027
69	0xbd0a332f	-0.03374022
70	0x3db71d12	0.089410916
71	0xbdbd308d	-0.09237776
72	0x3d3aa424	0.045566693
73	0x3d53dedc	0.051726207
74	0x3d82f273	0.063939
75	0x3cf23b29	0.029569225
76	0xbd7ea7f3	-0.062171888
77	0xbda07728	-0.07835227
78	0x3d567ec8	0.052367
79	0xbcfbc428	-0.030733183
80	0xbd0da4bc	-0.03458093
81	0x3d91010e	0.07080279
82	0x3c2f3800	0.010694504
83	0x3c255f4a	0.010093519
84	0xbbda49cc	-0.0066616293
85	0x3d880d0c	0.066431135
86	0xbdd3ce7e	-0.1034212
87	0x3cbee3bc	0.023301952
88	0x3d4f2b29	0.05057827
89	0xbdda9a7a	-0.10673995
90	0xbda140b4	-0.07873669
91	0xbd70dd31	-0.058804695
92	0xbcec7040	-0.028862119
93	0xbd3a124f	-0.045427617
94	0xbdb1a4f7	-0.08674043
95	0x3e64c786	0.22341737
96	0xbdb3cd30	-0.08779371
97	0x3e006a67	0.1254059
98	0x3d24e7f9	0.04026029
99	0xbc5ac440	-0.013352454
100	0x3deb0112	0.114748135
101	0x3d3c021d	0.045900453
102	0x3d18b5fa	0.03728292
103	0x3cb99333	0.022653198
104	0x3dcff112	0.101534024
105	0xbde1cb6f	-0.1102513
106	0x3ce0d229	0.027443962
107	0x3d8419fb	0.06450268
108	0x3e04133d	0.12897964
109	0x3bd37a2c	0.006453773
110	0x3dcffc8a	0.1015559
111	0x3dfa40e5	0.12219409
112	0x3dde5952	0.1085688
113	0x3d0f0e6e	0.03492587
114	0xbc90c398	-0.017671391
115	0xbcf4a4f8	-0.02986382
116	0xbd7fd7b0	-0.062461555
117	0x3c8582c7	0.016297711
118	0xbded702c	-0.11593661
119	0xbd8193c0	-0.06327009
120	0x3d3b5907	0.0457392
121	0xbbf098eb	-0.007342448
122	0xbc9a32bd	-0.018823022
123	0x3dbd1df0	0.09234226
124	0x3d925062	0.07144238
125	0x3e08d577	0.1336268
126	0xbd0e68ec	-0.03476803
127	0xbde1d686	-0.11027245
128	0x3d0b1e12	0.033964224
129	0x3cf0722e	0.02935132
130	0x3d437816	0.047721945
131	0x3dc57e23	0.09643199
132	0xbd6f61ce	-0.058442883
133	0x3e1ee12a	0.15515581
134	0x3d5805b8	0.05273983
135	0xbcaba30b	-0.020951768
136	0x3bed4b00	0.0072416067
137	0x3b89a02a	0.0042000012
138	0x3a1f4f38	0.0006077173
139	0x3e132b69	0.14372028
140	0x3cb152fc	0.021646015
141	0xbd3a5eba	-0.045500495
142	0xbd4421b8	-0.04788372
143	0xbdfa887e	-0.12233065
144	0x3d359de4	0.04434003
145	0xbbdc1520	-0.0067163855
146	0x3da14a9a	0.07875557
147	0x3c4f337a	0.01264655
148	0xbd298251	-0.041384045
149	0xbd20e82e	-0.039283924
150	0x3ded0d40	0.11574793
151	0x3e16c7d2	0.14724663
152	0x3d8e4071	0.06945885
153	0xbd447a45	-0.047968168
154	0xbd8d9be3	-0.06914499
155	0xbd913815	-0.07090775
156	0x3d8b01a5	0.06787423
157	0x3c2cf62b	0.010556738
158	0xbd91d250	-0.07120192
159	0x3d294ff2	0.041336007
160	0x3b767140	0.0037604123
161	0xbd09d3e0	-0.033649325
162	0x3dc690b5	0.096955694
163	0x3da07242	0.07834293
164	0xbd89a2b2	-0.06720485
165	0x3ca09d4a	0.019606251
166	0x3d657107	0.056015994
167	0x3db9142a	0.09037049
168	0xbc3dbfc9	-0.01158137
169	0xbdf8aaae	-0.121419296
170	0x3df4dba0	0.11955953
171	0xbd80ec62	-0.062950864
172	0x3d761b0c	0.060084388
173	0x3d3d6891	0.0462423
174	0xbad49296	-0.0016218002
175	0x3bb441c0	0.005501002
176	0x3bf17895	0.007369111
177	0xbd0acbc6	-0.03388574
178	0x3dd13902	0.102159515
179	0xbcfdd758	-0.030986473
180	0xbd8c2786	-0.06843476
181	0xbcbadd33	-0.022810554
182	0xbc9a5288	-0.018838182
183	0x3e07063a	0.13185969
184	0x3d5711a4	0.052507058
185	0x3e0e623b	0.1390466
186	0xbd1c2d3e	-0.038129084
187	0x3de33d3c	0.11095664
188	0xbd53a838	-0.051674098
189	0xbd8cadb5	-0.068690695
190	0x3da49440	0.08036089
191	0x3d668794	0.05628164
192	0xbd36393b	-0.044488173
193	0x3d59fa07	0.05321696
194	0x3cf01790	0.02930811
195	0x3db0e3d1	0.086372025
196	0x3dccc9ea	0.099994496
197	0x3dbdf449	0.09275109
198	0x3dd5424c	0.10413036
199	0xbd9a8496	-0.0754482
200	0xbd998f58	-0.07498044
201	0x3db497ea	0.08818038
202	0xbd26e45b	-0.04074512
203	0xbd324b73	-0.043528985
204	0xbd82014f	-0.06347906
205	0xbda7ec4c	-0.08199367
206	0xbdb731e2	-0.08945061
207	0xbd7a1680	-0.061056614
208	0x3de82db4	0.11336842
209	0xbdf4da1c	-0.119556636
210	0x3d182dc4	0.03715302
211	0x3d8d4f45	0.06899885
212	0x3d8ddca1	0.06926847
213	0xbda2d37a	-0.07950492
214	0x3dafa999	0.0857727
215	0x3e12049b	0.1425957
216	0x3dc3ca9f	0.09560131
217	0xbdf72863	-0.1206825
218	0x3df8a206	0.121402785
219	0xbd30a376	-0.04312464
220	0xbc346f84	-0.0110129155
221	0x3d9ad1ee	0.07559572
222	0x3d8b360b	0.06797417
223	0x3e3700cd	0.17871399
224	0xbce6ecef	-0.02818915
225	0x3dfcd10e	0.123445615
226	0x3d65171c	0.055930242
227	0x3e258f3c	0.16167921
228	0xbdcccae6	-0.09999637
229	0x3e084ba2	0.13310102
230	0x3d99a9c5	0.07503084
231	0xbca3a613	-0.019976651
232	0xbbf04f40	-0.007333666
233	0xbd53ab75	-0.051677186
234	0x3d763847	0.060112264
235	0x3ca98daf	0.020697443
236	0xbdaa0880	-0.083024025
237	0xbdbf8d44	-0.09353116
238	0x3df90063	0.12158277
239	0x3deda3a8	0.116034806
240	0x3dc2c445	0.09510092
241	0xbd9e37ab	-0.077254616
242	0xbd44ab34	-0.048014835
243	0x3d9b7568	0.07590753
244	0xbc5c4716	-0.013444683
245	0x3db03fc7	0.086059146
246	0x3d23c32c	0.039981052
247	0x3d3d55de	0.046224467
248	0xbda3640f	-0.07978069
249	0x3e296a32	0.16544417
250	0xbd852d48	-0.06502777
251	0x3d2c5b99	0.04207954
252	0xbd40e790	-0.047095835
253	0xbc1a5279	-0.009419077
254	0xbdc82eae	-0.097745284
255	0x3d95de3c	0.073177785

fc3.bias f4 [6]
0	0x3e29791e	0.16550109
1	0x3e68e69e	0.22744223
2	0xbc93d134	-0.018044092
3	0x3d9f5bc9	0.077811785
4	0xbb8f3265	-0.004370021
5	0x3d20c883	0.039253723
